Dive-into-DL-PyTorch/titanic/model/net_parameter.pkl (torch, 4631 bytes, 5 tensors)

linear1.weight f4 [20, 15]
00000000: 5c8d 143f 387a dc3f eea2 94bf 420d 2540
00000010: 7b9f e4bf c154 8ebd a32f 1abe 2508 80bf
00000020: d8f4 0ebf 7242 d23d c483 49bf 194f 85be
00000030: 023d 433f d252 043d 6267 6f3f df81 fdbc
00000040: 1c43 90bc 154d 9abe bd10 ff3e 2cb4 d6be
00000050: 032a 75bc 5f6c dcbd 51c0 0dbb 3e07 623d
00000060: 1034 fbbc f15b adbe 7b9d d6bd 8aea ae3e
00000070: 3887 91bc 0c3c c0be fa93 3cbd 122c fdbd
00000080: b070 5abd f208 393e 6f4c bcbd b8a0 c6bd
00000090: 9dbb 3b3d 4b76 79be bcd0 54bd caa6 bebd
000000a0: 043b 91be a00c 0bbd 0502 67be d17c 0ebe
000000b0: 6000 503d f3e0 bdbd fc3d 8fbe 2bbb 0e3e
000000c0: 2504 4bbe 09a8 b93b dcf0 14ba 2eda 87bd
000000d0: eb23 49be 74b6 133c 6248 5fbe 980e e6bc
000000e0: 8b98 f63d a8fd da3d 9c10 0bbe 0e0c 783e
000000f0: 6b19 24be 4c83 283f 1056 853c 4d85 9cbf
00000100: 5c70 533f c82a 623a 138d 493f d4c3 d8bd
00000110: 17b0 bd3d 37f5 77be 394e 343e b8fb 493c
00000120: c4af 613e 95c6 373d 40fb dabc 1cf8 22bf
00000130: 1ed0 e6be 7ed3 433f 6649 bdbf 15a0 c33f
00000140: d088 de3c 8872 743f 402d b03f 8647 eabe
00000150: 6772 a8bd 2299 793f 40d3 32be 6014 aabe
00000160: 3cea 143f 088c 19be e024 a9bd a041 d13d
00000170: 008e deba c247 103e ee61 7ebe d5eb 80be
00000180: ac6d 41be 1847 8d3d 80de 19be fc58 2cbe
00000190: 2e10 113e 3abb 7b3e c02c a03b 2407 dabd
000001a0: b04c c13d b4f1 673f 295b 18bf a03f a83e
000001b0: af97 32bd 3ea1 403f bc91 5cbf 473b 673f
000001c0: 6eff 04bf 1b17 ac3e 00db 2abe fdb5 013f
000001d0: c1be 19bf 8fab 26be a8f5 6f3f fcfd ae3d
000001e0: 8bcb 193e 88a2 03bf 8017 c23e a6ff 8b3d
000001f0: 6f7a 1e3f 144f b0be 24a9 1a3f 40ab a93e
00000200: c51a 8d3d 8cf1 0ebe e4f7 af3e cf78 4ebe
00000210: b926 ecbd ca5a d93e f84d 263d d65b 1ebf
00000220: 237c 23bf 7df0 d53e a229 32c0 92e9 1140
00000230: 231c 2f3d 2eac 133f 678b 663e d1f5 4c3f
00000240: 65b5 a23d 1188 3d3f 4c00 76bf f548 5abd
00000250: 9c94 a9bc 47c0 23bf bb32 1d3e 6178 da3d
00000260: ecf0 4e3e 7280 13be 5670 af3e d544 203b
00000270: 533d 853f 5c8d 843e 6675 5d3c d55b afbe
00000280: bc5d f2bd 829a 263f 5450 c13c 4033 31be
00000290: 70f3 223e 70e5 22be 98b0 af3d 88b7 473d
000002a0: 5096 a1bc 7507 843e 2073 35be a9c9 59be
000002b0: 081c debc 7876 cebc de36 33be 16ee 99bd
000002c0: 0c00 633e f926 813e 8278 0bbe 74c4 ee3d
000002d0: 61ed c8ba fa49 64be 6a87 253e 0423 3f3e
000002e0: 00b6 a4bd a165 9ebc f448 0dbd 545f 3cbe
000002f0: ab6b d4bd 00fc 0abe 4194 8b3d 8c75 24be
00000300: 8872 9b3d b5d1 5abd 5ed7 103e b77f 083f
00000310: ff45 c93f 2600 3abf f25d 1540 e4fe d1bf
00000320: 02fa 6a3c 48aa 94be b5d5 cabe 9e79 bcbe
00000330: 1642 f7bb 34a7 87be a290 20be 8b4b 3f3f
00000340: b6fd be3d dde0 0c3f 00a3 3e3f 71e9 913e
00000350: 95ec 653e 8a0a f2bd e4ec b43e 6153 09be
00000360: 1144 4a3e 2fe3 8a3e 64b0 083e d627 69be
00000370: 03e2 a83e 31d1 093b 9a4e 1e3f 8599 a13e
00000380: 5cfa 45be ab75 1dbe 942c eebd 92ab 963d
00000390: a742 663e d60f a0be 0e09 1fbe c03c 3cbe
000003a0: 17d3 3fbe 51c3 d5bd 3502 8cbc c6c7 eebd
000003b0: 98b0 4abe 5790 c13d 1832 a9be 4033 a1bb
000003c0: 5414 febe 8991 babe 29fa 043f bb2a a6bf
000003d0: 3acf 953f cf8e 573e baab 383f 130c 5cbe
000003e0: 59e7 ddbe d523 a8bd 8a5e 2d3f bf1e 26be
000003f0: a97f 943e 14ed 5f3e b2ab 87be 1d04 73be
0.580282 1.7224798 -1.1612222 2.5789342 -1.786117 -0.06949759 -0.15057234 -1.0002486
-0.5584235 0.1026658 -0.78716683 -0.2603691 0.76264966 0.032305546 0.93517125 -0.030945716
-0.017610125 -0.30136934 0.49817458 -0.41934335 -0.01496363 -0.10762858 -0.0021629522 0.055182688
-0.030664474 -0.33859208 -0.10479256 0.34163314 -0.017764673 -0.37545812 -0.04603956 -0.12361921
-0.053330123 0.18069819 -0.09194266 -0.096986234 0.04583322 -0.24361531 -0.051956877 -0.09309156
-0.28365338 -0.033947587 -0.22559364 -0.13914801 0.050781608 -0.09271421 -0.27976978 0.13938586
-0.198258 0.0056657833 -0.0005681643 -0.06633411 -0.19642608 0.009015668 -0.21804956 -0.02808313
0.12040814 0.10692912 -0.13580555 0.24223348 -0.16025321 0.65825343 0.01627639 -1.222818
0.8259332 0.0008627591 0.7873089 -0.10584226 0.09262102 -0.24214636 0.17607965 0.012328081
0.22039706 0.044867117 -0.026731133 -0.63659835 -0.45080656 0.76494586 -1.4788024 1.5283228
0.027164847 0.9548726 1.3763809 -0.45757693 -0.082249455 0.9749929 -0.17463398 -0.3321867
0.58169913 -0.14994824 -0.082589865 0.10217595 -0.0016979575 0.14089873 -0.24842045 -0.25179926
-0.18889493 0.06898326 -0.15026283 -0.1683082 0.14166328 0.2458314 0.004888147 -0.10645893
0.09438455 0.90603185 -0.595141 0.32861042 -0.043601688 0.75246036 -0.86159873 0.90324825
-0.51952255 0.33611378 -0.16685104 0.5066832 -0.6005669 -0.16276382 0.93734217 0.085445374
0.15019052 -0.5141988 0.37908554 0.068358704 0.6190557 -0.34435332 0.6041434 0.33138466
0.068898715 -0.1395933 0.34368813 -0.20163272 -0.11530823 0.4245208 0.0406017 -0.6185888
-0.6386129 0.4178504 -2.783791 2.279881 0.042751443 0.576846 0.22514115 0.80062586
0.079447545 0.74035746 -0.96094203 -0.053292233 -0.020700745 -0.63965267 0.15351383 0.10667492
0.20209092 -0.14404467 0.34265393 0.002445509 1.040934 0.258891 0.0135167595 -0.3424975
-0.11834285 0.6507951 0.023597874 -0.17304707 0.15913177 -0.15907836 0.085786045 0.048759013
-0.019724995 0.2578694 -0.17719698 -0.21268333 -0.027112976 -0.025202975 -0.17501399 -0.075161144
0.22167987 0.25225046 -0.13620189 0.11658564 -0.0015329533 -0.22293845 0.16164938 0.18665701
-0.08042526 -0.01933557 -0.0344934 -0.1839574 -0.103720985 -0.13572693 0.068153866 -0.16060466
0.075902045 -0.05342265 0.14144656 0.5331988 1.5724486 -0.72656476 2.333859 -1.6405911
0.014341833 -0.29036164 -0.3961617 -0.36811537 -0.00754572 -0.26494753 -0.15680173 0.74724644
0.09325735 0.55030614 0.7446747 0.28498414 0.2245353 -0.118184164 0.35336983 -0.13410713
0.19752528 0.27126452 0.13348538 -0.22769102 0.32984933 0.0021029229 0.61838686 0.3156244
-0.19333786 -0.15376918 -0.11629596 0.07356943 0.22486363 -0.31262082 -0.15530798 -0.1838255
-0.18732868 -0.10437644 -0.017090896 -0.116591975 -0.19793928 0.09451359 -0.3304603 -0.0049194396
-0.49624884 -0.3643916 0.51944214 -1.298179 1.1703866 0.21050571 0.72137034 -0.21488981
-0.43340567 -0.082099594 0.6772238 -0.16222666 0.29003647 0.21867782 -0.2649818 -0.23732038

linear1.bias f4 [20]
00000000: e181 413e 4e45 b9be e75e 953d 530c 77be
00000010: ecba 133e 4feb 5ebe 52cc 663e 06d7 503e
00000020: 10bd 643e 29a8 d5be dcde 1c3d 1536 04be
00000030: 4dcc 203e 2b73 943e c4c1 c33c 1f6f cf3b
00000040: 944f 483e a4d1 3bbf a6a3 6cbe f010 0e3e
0.18897201 -0.36185688 0.07293492 -0.24125795 0.14426774 -0.2176945 0.2253888 0.20394525
0.22337747 -0.4172986 0.038298473 -0.12911256 0.15702935 0.28994116 0.023896106 0.0063303853
0.19561607 -0.7336676 -0.23109302 0.13873649

linear2.weight f4 [15, 20]
00000000: 4667 8e3d fba0 04be a02b 37be a9b7 90be
00000010: c0c9 fb3c 7d1b 31bc 46c2 643e b54c 13bf
00000020: 91cc b13e 898c 22bf 2356 05bf 2445 953d
00000030: 0105 00be 9637 a43d 9f00 a73d 0145 76be
00000040: a7bf bdbe e698 85be 1823 963d 701d 393d
00000050: a409 46be 21d8 85be 000e a63e 7db4 9bbc
00000060: f5d3 96bd 328a 913c 7303 1fbe 888c b93e
00000070: b7ed aa3e b72c dbbe 372c dabd 7431 48be
00000080: 71e5 8cbc e3cd 8dbe 0b7c 4e3e 5602 7bbd
00000090: d3bf 29be 4f61 c5bd 4841 063d 10fd f63c
000000a0: 3c3f 2b3a 7ebe 40be e2c8 fabd fe85 86bd
000000b0: 5ee7 40be 2a7a 5ebd e0c2 283e dde9 87be
000000c0: 1239 7a3b 8703 6abe a17f 07be b25e adbd
000000d0: b3cc d0bb 83c9 fa3d 0559 453e d130 92bd
000000e0: 55df 91be 7274 5fbe 7041 cebc 122f 17be
000000f0: 4bcf ca3d c308 333e 8041 28be 0ffc 3c3d
00000100: 9126 da3c 564c a0bd a482 c03d 886b 37be
00000110: 90e5 c6bd fe9e e5be f290 49be b470 4bbd
00000120: 39e7 a0bd c119 ed3d cae6 75bd 85d2 ab3d
00000130: fbce 7cbd 9222 403e 4c48 bd3d d098 a4bd
00000140: e8e3 1dbf c992 36be 7666 363e 3c60 3e3e
00000150: 9252 333d 150d 8b3d 1a16 27be 5b27 653f
00000160: bbf0 dc3e 9cb3 503e 2ae3 8dbb 20db a53c
00000170: 293d 043d 201c 7a3e f7a6 d43e 9ae4 de3c
00000180: bf41 213e 78ae 66bc ac46 623e 302d d53c
00000190: 0d61 fabd 404b acbd 2d39 d039 09fa d4bd
000001a0: a430 e5bd 7354 b53d 2392 fabd df1f 473e
000001b0: 5603 293e fed8 e0bb 3a5c 88be 4805 8e3c
000001c0: 0924 2f3e 90d6 06bd b160 76be 5fce 97bb
000001d0: d663 e3bb 96d4 f73d 08c1 0ebe 2a79 333e
000001e0: aa59 9a3d 8c61 333e d7f8 ddbd d1d6 38bd
000001f0: 8f76 81bb 9332 7c3d ba67 20be a6d9 b7bc
00000200: 46fc 08bf e1a7 cbbe a658 b53d 1c11 d03d
00000210: 16f6 ca3d c0eb 30bd 5e2e 7abe f193 75be
00000220: e7cd 4dbe 881f 153d 2487 10be ec00 59bd
00000230: ae6f 8e3e 8938 a53d e13b f1bd 5f35 f3bd
00000240: 319e 04be 4354 e4be 00af ecba 0871 32bf
00000250: 32bc 863e 75b2 42bf 8b8a 15bf b684 c6bd
00000260: e217 09be 6572 293e ca26 9dbe b0d5 1c3e
00000270: 86cf 59be 7071 97bc aac3 443e 6c5d 8a3d
00000280: 2275 3dba a30b 34be 28f5 1bbd d842 bb3c
00000290: 997e 7fbe 24a5 51bd aa00 543e f86a 923c
000002a0: a68a c4bd 6cfa b4be 10f5 3bbc b0f7 753d
000002b0: 9081 a03d 7c14 37bd 8189 24be 0815 b7bc
000002c0: 8d47 fabc b618 11be 6cc1 6abd 14a4 4fbe
000002d0: 8725 5ebe 0727 543d 42e3 313e 806a 923d
000002e0: ac03 47be c730 d53d 80df 9c3d a5dd d63e
000002f0: b077 d43e 0e84 cd3d c2bc afbd 34c8 cd3d
00000300: 60e5 edbd 414b e13d c3cb 7f3e 185d f1bd
00000310: d086 833e 5c67 d23d c857 21bd 1003 2e3c
00000320: 992b 45be d331 89be e0df 933d 0521 e13d
00000330: 9041 9cbe 30fb 76be 18ab 9d3d f473 26bf
00000340: 2175 8b3e dd76 8b3e cf9f 893d f615 bcbd
00000350: e4a3 813d e28f d2bd 5bc0 10be 7396 673e
00000360: bd71 a1be 1b9e ae3d 9015 703c c1f0 56be
00000370: 88c7 99be 477f 84bb f40a cdbb 4aa1 6cbd
00000380: 58e1 dd3c cc2f a13e 8414 873d 9bbb 153f
00000390: 64c7 633e 765e 1e3e eea5 023d a4c3 953d
000003a0: 8f2b 1fbd 6f57 c83c ea1c bb3d 4236 ee3d
000003b0: 243c 8f3e 5661 89bb c0bd bf3b d463 5fbd
000003c0: 36a5 69be b6ca 99be 36ba d0bd 337c 413e
000003d0: 38ff 583e d956 dc3d 1a9a 08be 4851 293f
000003e0: a715 ff3e a1d8 643c 6c86 353e 2c34 34bd
000003f0: 71f4 e1bd bea1 4abe 4f0e 4f3e e33a 86bd
0.069532916 -0.12952034 -0.17887735 -0.28265122 0.03073585 -0.010809776 0.22339734 -0.5753892
0.34726384 -0.6349569 -0.5208456 0.07288578 -0.12501909 0.08018415 0.08154415 -0.2404976
-0.37060282 -0.26093215 0.07330912 0.04519409 -0.19339615 -0.26141456 0.32432556 -0.019006962
-0.07364646 0.017766092 -0.1552866 0.3624003 0.33384487 -0.42807552 -0.106529646 -0.19550115
-0.01719925 -0.27696142 0.20164506 -0.061281525 -0.16577081 -0.09637701 0.0327771 0.030149966
0.0006532555 -0.18822667 -0.122453466 -0.06568526 -0.1883826 -0.054315723 0.16480589 -0.2654561
0.003818099 -0.22852908 -0.1323228 -0.08465327 -0.0063720583 0.122454666 0.1927224 -0.07138217
-0.284907 -0.21821764 -0.025177687 -0.1476405 0.09902819 0.17483811 -0.16431236 0.04613882
0.026629718 -0.0782706 0.09399918 -0.17912114 -0.09711754 -0.44847864 -0.19684198 -0.04966803
-0.07856602 0.11577178 -0.06003455 0.08389763 -0.06172083 0.18763188 0.09242305 -0.08036959
-0.6167588 -0.17829432 0.17812523 0.18591398 0.043779917 0.067896046 -0.16317025 0.89513177
0.43152413 0.20381016 -0.0043300586 0.020246089 0.03228489 0.24424791 0.41533634 0.027208615
0.15747736 -0.0140796825 0.22097272 0.026022524 -0.12225542 -0.0841279 0.0003971545 -0.10399253
-0.11190918 0.08853998 -0.122349046 0.19445752 0.16505179 -0.006861805 -0.26632863 0.017336503
0.1710359 -0.032919466 -0.24060322 -0.0046327556 -0.0069393916 0.121010944 -0.13940823 0.17526689
0.07536633 0.1751768 -0.10838478 -0.04512674 -0.003950901 0.06157167 -0.15664569 -0.02244265
-0.5350994 -0.3977652 0.08854799 0.10159513 0.099102184 -0.04319358 -0.2443175 -0.23982216
-0.20098077 0.036407024 -0.14114052 -0.052979395 0.2781958 0.08067424 -0.11778999 -0.11875414
-0.1295097 -0.44595537 -0.0018057525 -0.6970372 0.26315457 -0.76053554 -0.58414525 -0.09693281
-0.13388017 0.16547544 -0.30693656 0.1531589 -0.2127057 -0.018486708 0.19215265 0.067561
-0.0007227232 -0.17582564 -0.038075596 0.022859022 -0.24950637 -0.05118288 0.20703378 0.017873272
-0.095967576 -0.35347307 -0.011472002 0.060050666 0.07837212 -0.04469727 -0.16068079 -0.022348896
-0.030551696 -0.14169583 -0.057313368 -0.20277435 -0.21694003 0.051795032 0.17371848 0.071492195
-0.19434994 0.10409694 0.07659817 0.41965976 0.41497564 0.10034953 -0.085809246 0.10047951
-0.116160154 0.11000682 0.24980073 -0.11785334 0.2568879 0.102736205 -0.039390355 0.010620847
-0.19254912 -0.26795825 0.07220435 0.10992626 -0.3051877 -0.24119258 0.07698649 -0.6502068
0.272378 0.27239123 0.06719934 -0.09183876 0.06330088 -0.1028135 -0.14135878 0.22615986
-0.31532088 0.0852625 0.014653578 -0.20990278 -0.30035043 -0.004043493 -0.006257409 -0.057771005
0.027084991 0.3148178 0.0659571 0.5848939 0.2224403 0.15465721 0.031896524 0.07312706
-0.0388599 0.024455754 0.09136374 0.116314426 0.2797557 -0.0041925116 0.0058514774 -0.054538563
-0.22816929 -0.3003747 -0.10191767 0.18895034 0.21191108 0.107587524 -0.13340035 0.6613965
0.49821207 0.013967664 0.17727059 -0.043995067 -0.110329516 -0.19788262 0.20220302 -0.065542005

linear2.bias f4 [15]
00000000: 2165 6f3e b30d d6bd ddc1 693e 9cd2 923e
00000010: 2886 b03e 5e25 373e 3950 a13e c82e 823f
00000020: afe0 adbe 14a2 d93a ca5c 9a3e eb72 973e
00000030: 70e4 8d3e 7957 223f 7e53 53be
0.23378421 -0.10451832 0.22827859 0.28676307 0.34477353 0.17885348 0.31506518 1.0170527
-0.33960482 0.0016604089 0.30148917 0.29579863 0.27713346 0.6341472 -0.20637318

linear3.weight f4 [1, 15]
00000000: 3025 1e3e b0eb 273c ad73 8a3d 2db5 ac3d
00000010: 1ccb 42be f633 9cbc 7f4e 3c3e 5612 e93e
00000020: 573c f6bd 8a5a 7bbd c6ee 723d 3fa6 6fbe
00000030: 33a5 21be d76e 753e 1a87 0cbd
0.15443873 0.010249063 0.06760345 0.08432994 -0.19022793 -0.019067746 0.18389319 0.45521802
-0.12023228 -0.06136564 0.059309743 -0.23403262 -0.15785675 0.23968063 -0.03430853
